voice_recon_mini_V2.tflite (tflite, 697432 bytes, 6 tensors)

arith.constant f4 [16]
0	0x3a802740	0.0009777322
1	0x3b940974	0.0045177285
2	0x3be7e370	0.007076673
3	0x3bcd9f9e	0.0062751314
4	0x3ddd64d0	0.10810244
5	0x39700400	0.00022889674
6	0x3ca4970c	0.020091556
7	0x3c0dd30b	0.008656274
8	0x3a9d7db0	0.0012015607
9	0x3bf7cf0a	0.007562523
10	0x3b4724a0	0.003038682
11	0x3c3d9878	0.011571996
12	0x3b9aaf30	0.004720591
13	0x3b710e84	0.0036782334
14	0xb9be9f30	-0.00036358228
15	0x3b607940	0.0034251958

arith.constant1 f4 [16, 3, 3, 1]
0	0x3ed12c4a	0.40854102
1	0x3ecb242e	0.3967604
2	0x3eb47d70	0.3525195
3	0x3e3433bf	0.17597865
4	0xbe231646	-0.15926465
5	0xbdee7bb7	-0.116446905
6	0x3e61d069	0.22052158
7	0x3ddfd952	0.109301224
8	0x3e25bab2	0.161845
9	0x3b479826	0.0030455678
10	0x3d726f7d	0.059188355
11	0xbf04d2ca	-0.5188414
12	0x3ee03147	0.43787596
13	0x3f19c1e1	0.6006146
14	0xbe7e71c1	-0.24848081
15	0xbc48a615	-0.012246628
16	0x3f0c575b	0.54820794
17	0xbe203e25	-0.15648706
18	0x3c1c99ef	0.009558185
19	0xbe8f170d	-0.27947274
20	0x3e2662a9	0.16248573
21	0xbd7158da	-0.058922626
22	0xbe40f30f	-0.1884272
23	0x3f26f6e5	0.6522048
24	0xbd2ecc1d	-0.042675126
25	0x3d3c594c	0.045983598
26	0x3f025d6a	0.5092379
27	0xbc6c3e45	-0.014419143
28	0x3c3b2bd8	0.011424027
29	0x3e14599a	0.14487305
30	0x3e22172c	0.15829152
31	0x3f2e2d3b	0.68037766
32	0x3e4604f0	0.19337821
33	0xbe333751	-0.1750157
34	0x3f0c70e9	0.5485979
35	0xbdca3d98	-0.09875029
36	0xbeaac2ae	-0.33351654
37	0xbe88afa9	-0.26696518
38	0x3e85ceb7	0.26134273
39	0xbe928312	-0.28615624
40	0x3e5600a2	0.20898679
41	0x3e3cd206	0.18439493
42	0x3ebd865e	0.37016577
43	0xbf0e33bd	-0.55547696
44	0xbeccdbad	-0.4001135
45	0x3ef0c703	0.47026834
46	0x3dfa9749	0.122358866
47	0xbe7051f2	-0.2346876
48	0x3f2c0803	0.67199725
49	0x3df333b0	0.11875093
50	0xbf2cd8a9	-0.675181
51	0x3f16371f	0.5867786
52	0xbe98ad65	-0.2981979
53	0xbeada2bb	-0.33913216
54	0xbd6767ef	-0.056495603
55	0x3f184802	0.59484875
56	0xbd6575dc	-0.056020603
57	0xbef5f1df	-0.48036095
58	0xbddfc2a8	-0.109257996
59	0xbd9edb09	-0.077566214
60	0x3ea924cd	0.3303589
61	0xbec9150c	-0.3927387
62	0xbe258878	-0.1616534
63	0xbd697ee0	-0.057005763
64	0x3ebe330b	0.37148318
65	0xbd8cd1df	-0.06875967
66	0x3d22ad5e	0.039716117
67	0x3f18249b	0.59430856
68	0x3f0494a2	0.51789296
69	0xbc6ecb82	-0.014574887
70	0x3eeb62a5	0.45973697
71	0xbd83afa8	-0.06429988
72	0x3f065acd	0.524823
73	0x3f13643b	0.57574815
74	0x3dbcad5f	0.092127554
75	0x3e377300	0.17914963
76	0xbca44259	-0.020051168
77	0xbd2f99a9	-0.04287115
78	0xbe421afc	-0.18955606
79	0x3dda7b5f	0.106680624
80	0x3e0c80a2	0.13720945
81	0x3f2416ad	0.640971
82	0xbdddab63	-0.10823705
83	0xbe2da19d	-0.16956182
84	0x3d925ac4	0.071462184
85	0x3f131729	0.57457215
86	0xbe2799a7	-0.16367207
87	0xbebb2201	-0.3654938
88	0xbdd344ff	-0.10315894
89	0x3df5b3c6	0.1199718
90	0x3ea1d904	0.31610882
91	0xbf4570a4	-0.77125
92	0xbe7e2c74	-0.24821645
93	0x3b9fc80f	0.0048761438
94	0xbf071778	-0.52770185
95	0x3ebbe4b9	0.3669794
96	0xbdbeacb3	-0.093102835
97	0xbad79a3d	-0.0016449165
98	0x3f1fa93a	0.62367594
99	0xbe232b8b	-0.15934579
100	0x3f19ed6b	0.60127896
101	0x3ec8e827	0.39239618
102	0xbc806d88	-0.015677229
103	0x3f2105c8	0.62899446
104	0x3e2ae1f1	0.16687752
105	0x3da8e62e	0.08247028
106	0xbefb66b3	-0.4910179
107	0xbea1c48f	-0.31595275
108	0x3eeea341	0.46608928
109	0x3ef3a1a2	0.47584254
110	0xbdf53c31	-0.11974371
111	0xbea32fda	-0.31872445
112	0xbd1c6eaf	-0.038191494
113	0x3e9df2d8	0.30849338
114	0x3e9f4973	0.31110725
115	0xbd543e61	-0.0518173
116	0xbe9de005	-0.30834976
117	0xbec89672	-0.3917728
118	0xbecbd70a	-0.398125
119	0xbdf19041	-0.117950924
120	0x3f0c9b3c	0.5492437
121	0x3f02266f	0.50839895
122	0x3e98018c	0.2968868
123	0xbd92c577	-0.0716657
124	0xbe9f4cbf	-0.3111324
125	0xbddaf643	-0.10691502
126	0x3f12e721	0.57383925
127	0x3cd45759	0.025920557
128	0x3e015e93	0.12633733
129	0xbe7cd622	-0.2469106
130	0x3e7f513e	0.24933335
131	0xbe097db0	-0.13426852
132	0xbeffcf2e	-0.49962753
133	0x3bad19f1	0.0052826335
134	0x3d43ecdb	0.047833305
135	0x3ec709b4	0.3887459
136	0xbd76495d	-0.06012856
137	0x3ed5eb09	0.4178088
138	0x3d6e7bb9	0.05822346
139	0xbd1f0c98	-0.03883037
140	0x3e89a159	0.2688091
141	0x3e6a74a1	0.22896053
142	0xbf2e54b3	-0.6809799
143	0xbe3f72fb	-0.18696205

arith.constant2 f4 [6, 64]
0	0xbe95dcd2	-0.29270035
1	0x3e5c4c26	0.21513423
2	0xbe24e7fe	-0.16104123
3	0xbe8953b5	-0.26821676
4	0x3ecf96b7	0.40544674
5	0x3eaf5fcc	0.34252775
6	0xbeaaeae0	-0.3338232
7	0xbe33ed78	-0.17571056
8	0x3ed9bb3f	0.4252567
9	0xbef28f1a	-0.47374803
10	0x3e46a5bf	0.19399165
11	0xbcf937ff	-0.030422209
12	0x3e5ffa98	0.21872938
13	0x3e76a9be	0.24088189
14	0x3eb7ef38	0.35924697
15	0xbecb09ae	-0.39655823
16	0xbf055f65	-0.52098686
17	0x3e8f85d5	0.28031793
18	0xbe7e5380	-0.2483654
19	0x3e002ebd	0.12517829
20	0xbebe3ff4	-0.37158167
21	0xbe89bceb	-0.26901945
22	0x3d41297c	0.047158703
23	0xbb281b3a	-0.0025650994
24	0xbebfd931	-0.3747039
25	0x3e2493b5	0.16071971
26	0x3e49c80b	0.19705217
27	0xbee2e236	-0.4431321
28	0x3e5e6ca6	0.21721134
29	0x3e9ec605	0.31010452
30	0xbe5add91	-0.21373583
31	0xbeafa411	-0.3430486
32	0x3da94292	0.082646504
33	0x3dcd9d2e	0.10039745
34	0xbe8105ed	-0.25199834
35	0x3dc0400c	0.09387216
36	0xbe5c7430	-0.21528697
37	0x3ea000b3	0.31250533
38	0xbe84e354	-0.25954688
39	0x3e8243d7	0.25442383
40	0x3eb16a63	0.3465148
41	0xbe7c71d3	-0.24652795
42	0x3e541370	0.2071054
43	0xbede235c	-0.43386352
44	0xbe96c6cb	-0.29448542
45	0x3dba5d07	0.09099775
46	0x3e36ecab	0.17863719
47	0xbe9660f0	-0.29370832
48	0xbd1c3691	-0.038137976
49	0x3e86e647	0.26347563
50	0xbe8d0aae	-0.2754721
51	0x3d2048d7	0.039131965
52	0xbdb3572e	-0.087568626
53	0xbe7334d7	-0.23750626
54	0x3e81a6b9	0.25322512
55	0x3e936790	0.2878995
56	0xbdb34833	-0.08754005
57	0xbe72f7cf	-0.23727344
58	0xbe1e53b0	-0.15461612
59	0xbee34d05	-0.443947
60	0xbe97a48f	-0.29617736
61	0x3e261607	0.1621934
62	0xbda4a9f6	-0.0804023
63	0x3e85a2d3	0.26100788
64	0x3cd2f5c1	0.02575195
65	0x3e474120	0.19458437
66	0x3ec3be8e	0.3823132
67	0xbed42a1c	-0.41438377
68	0x3e48a3cb	0.19593732
69	0xbe1ad3b5	-0.15119822
70	0x3e2d0951	0.16898085
71	0xbe03ac46	-0.12858686
72	0xbea9902c	-0.33117807
73	0xbe0fa5fa	-0.14028159
74	0xbdeeaaf1	-0.11653698
75	0xbcd0fa2d	-0.025509918
76	0xbeb22e63	-0.34801015
77	0xbdce773d	-0.10081337
78	0xbe463147	-0.19354735
79	0xbe1b90cf	-0.15191959
80	0xbf063bff	-0.52435297
81	0x3e1aa4ef	0.1510198
82	0xbe461bd7	-0.19346558
83	0x3e8ccee4	0.27501595
84	0x3e85964f	0.2609124
85	0x3e50a4d6	0.2037538
86	0xbe966f27	-0.29381678
87	0x3e90f7a9	0.2831395
88	0x3eaef24c	0.34169233
89	0xbeb38568	-0.35062718
90	0xbee4c045	-0.4467794
91	0xbea1dd37	-0.31614086
92	0xbe922e2e	-0.28550857
93	0xbedc775a	-0.43059808
94	0xbe82306d	-0.2542757
95	0xbeb816e5	-0.35954967
96	0x3ea34cee	0.3189463
97	0x3e869339	0.26284197
98	0xbe69ba67	-0.22825013
99	0xbee7f89f	-0.4530687
100	0xbedaa885	-0.42706695
101	0x3e9bdce7	0.30441973
102	0xbeb1ecf6	-0.347511
103	0x3e876585	0.2644464
104	0x3e5017bc	0.20321554
105	0xbd1ffd92	-0.039060183
106	0x3daed9ad	0.08537612
107	0x3ddb8a4c	0.107197374
108	0x3e84d460	0.2594328
109	0x3ce23f86	0.027618181
110	0x3e9db932	0.30805355
111	0x3e80b3a9	0.2513707
112	0x3d9f0db5	0.07766286
113	0x3e90c402	0.28274542
114	0xbeca8bba	-0.39559728
115	0xbe8060e5	-0.25073925
116	0x3f029005	0.51001006
117	0xbedd71d9	-0.4325092
118	0x3e44461d	0.19167371
119	0xbe4f0c1e	-0.20219466
120	0x3e046400	0.12928772
121	0xbef1d5a0	-0.47233295
122	0x3e9c3ae3	0.30513677
123	0x3eb3d219	0.3512123
124	0xbed28648	-0.41118073
125	0x3e051d2e	0.12999412
126	0xbe554163	-0.20825724
127	0xbe8c227b	-0.27370057
128	0x3d8cd29e	0.068761095
129	0x3e918dc9	0.28428486
130	0xbe8e5ce4	-0.27805245
131	0x3efabf15	0.4897391
132	0x3eed2ebc	0.46324718
133	0x3c2a3014	0.010387439
134	0x3df95044	0.121735126
135	0xbe880797	-0.2656829
136	0x3e245956	0.16049704
137	0x3e987702	0.29778296
138	0x3daaca9a	0.083394244
139	0xbe3f560e	-0.18685171
140	0x3d1ac9ea	0.037790217
141	0xbe578556	-0.21046957
142	0xbe075873	-0.13217334
143	0x3ed542dd	0.41652575
144	0x3e28fda5	0.16503008
145	0x3e63d49d	0.22249074
146	0xbe9530a8	-0.29138684
147	0xbebfc226	-0.3745281
148	0x3edd1413	0.43179378
149	0x3dcb4eb1	0.099271186
150	0x3e77b45a	0.24189892
151	0xbe38d8ef	-0.18051504
152	0x3e953d8a	0.29148513
153	0x3ea082ba	0.31349736
154	0x3e2e2ada	0.17008534
155	0x3e935840	0.28778267
156	0xbe4ca8b8	-0.19986236
157	0xbd57c956	-0.052682243
158	0x3ec4e203	0.38453683
159	0xbeaafaf7	-0.33394596
160	0xbecf25f7	-0.40458652
161	0x3e610722	0.21975377
162	0x3e9a0d38	0.3008821
163	0xbea02afa	-0.3128279
164	0x3e98358b	0.2972835
165	0xbeec70a7	-0.46179697
166	0xbe747d7d	-0.23875995
167	0xbe14cbf2	-0.14530924
168	0xbe887219	-0.2664955
169	0xbec2526e	-0.37953514
170	0xbee50b92	-0.4473539
171	0xbe9a0897	-0.3008468
172	0x3eaff770	0.34368467
173	0x3e163079	0.14666928
174	0xbdc6f25b	-0.097141944
175	0x3e8b168d	0.27165642
176	0xbb5842be	-0.0032998766
177	0xbeaf7f78	-0.34276938
178	0xbe944e8b	-0.28966174
179	0xbd787397	-0.06065711
180	0xbefab95c	-0.48969543
181	0x3db42dad	0.087977745
182	0xbebe1860	-0.37127972
183	0x3e906356	0.28200787
184	0x3e6912ff	0.22761153
185	0x3de320bf	0.1109023
186	0xbea5af6f	-0.32360408
187	0xbe58b261	-0.21161796
188	0x3e3179b6	0.17331585
189	0x3d519fa9	0.051177654
190	0x3e67bf8b	0.22631662
191	0xbe28c7e4	-0.16482502
192	0x3effcbbb	0.49960122
193	0x3e4c3f3b	0.19945996
194	0xbf0190a7	-0.50611347
195	0xbf02195e	-0.5081996
196	0xbeff6865	-0.49884334
197	0x3dcab476	0.098977014
198	0x3ead6f31	0.33873895
199	0xbe665028	-0.22491515
200	0xbf020829	-0.507937
201	0x3e6daa02	0.23209384
202	0xbe2aa400	-0.16664124
203	0xbef78a1f	-0.48347566
204	0x3df342b4	0.11877957
205	0x3e810e91	0.25206426
206	0x3cd539a0	0.026028454
207	0xbe95b68d	-0.29240838
208	0xbe265d11	-0.1624644
209	0xbe5eafe1	-0.2174678
210	0x3ef42c35	0.47689977
211	0xbedaf247	-0.42762968
212	0xbe8698cd	-0.26288453
213	0x3e0335f1	0.12813546
214	0x3ec49015	0.38391176
215	0xbde67802	-0.112533584
216	0xbe2e1fb3	-0.1700428
217	0x3dd90d9e	0.105983004
218	0xbe0f2751	-0.13979842
219	0x3e3652d5	0.17805035
220	0x3de6b07c	0.112641305
221	0x3eb983b3	0.3623329
222	0xbdc02df2	-0.093837634
223	0x3d2d45de	0.04230296
224	0xbeb69716	-0.35662144
225	0x3e8646b5	0.2622582
226	0x3eb55b4d	0.3542122
227	0x3e6fc179	0.23413648
228	0x3ec024a2	0.3752795
229	0xbe8072cd	-0.25087586
230	0xbed8e5da	-0.42362863
231	0x3db257fd	0.08708189
232	0xbee72567	-0.45145723
233	0x3f1c5bb1	0.6107741
234	0xbec98b02	-0.39363867
235	0xbe45a4bb	-0.19301121
236	0x3e9b0cbd	0.30283156
237	0xbf12b99c	-0.5731447
238	0x3c66e7ae	0.014093323
239	0x3e888391	0.26662877
240	0xbe871520	-0.26383305
241	0xbece2fab	-0.40270743
242	0x3ec98fce	0.39367527
243	0xbe526361	-0.20545723
244	0xbe65f675	-0.22457297
245	0x3f010d48	0.5041089
246	0xbe1ada4a	-0.15122333
247	0xbda51e48	-0.08062416
248	0x3e93c417	0.28860542
249	0xbd9f22a9	-0.07770283
250	0x3cbe11a4	0.023201771
251	0xbea19e78	-0.31566215
252	0x3ec812f6	0.39076966
253	0xbe8a4c4f	-0.27011344
254	0xbde182d2	-0.1101128
255	0xbde54a84	-0.11195853

arith.constant3 f4 [64, 2704]
0	0xbd63c209	-0.05560497
1	0x3d1f9aaf	0.038965877
2	0xbe04ece0	-0.12980986
3	0x3d1f83f2	0.038944192
4	0xbc77918c	-0.015110385
5	0xbd04df5e	-0.032439582
6	0xbd788d31	-0.060681526
7	0x3d036222	0.03207601
8	0xbc104c99	-0.008807325
9	0x3c6b9f1e	0.014381198
10	0xbd982e2e	-0.07430683
11	0xbd8c529b	-0.06851693
12	0x3cbe53a1	0.023233237
13	0xbd981796	-0.07426374
14	0xbdd865fa	-0.105663255
15	0xbd59d1fa	-0.053178765
16	0xbd82e831	-0.06391943
17	0xbd5e9061	-0.05433691
18	0xb8b0c58a	-8.4291285e-05
19	0xbcf0a057	-0.029373331
20	0x3dc95c02	0.09832002
21	0x3bc4aaf0	0.0060018227
22	0x3d4ab731	0.04949111
23	0xbd96c590	-0.07361901
24	0xbdf42ca8	-0.1192258
25	0xbd33fa8e	-0.04394012
26	0x3dba0854	0.0908362
27	0xbd49794d	-0.049187947
28	0x3c0a5080	0.008442044
29	0x3dbd4916	0.09242456
30	0xbdc45f96	-0.09588544
31	0xbcf76264	-0.030198283
32	0xbcdfca23	-0.027318066
33	0xbca28242	-0.019837502
34	0x3db20be5	0.08693675
35	0xbdaeb1d9	-0.085300155
36	0x3dc4c1b1	0.09607256
37	0xbe021ef5	-0.12707122
38	0x3bf50bd0	0.007478215
39	0xbcbc8c41	-0.023016097
40	0xbd6e7614	-0.058218077
41	0xbd990da1	-0.07473303
42	0x3d8394c2	0.06424858
43	0xbd85f13c	-0.065401524
44	0xbd148b39	-0.036265586
45	0xbaf3958f	-0.0018584001
46	0x3c5b1999	0.013372802
47	0xbc68066f	-0.01416169
48	0x3de05710	0.10954106
49	0x3d96d301	0.073644646
50	0x3e18a655	0.149072
51	0x3dc4395b	0.09581252
52	0x3da90089	0.08252055
53	0x3d9fdd62	0.07805897
54	0x3c40e076	0.011772266
55	0x3e0ebb61	0.13938667
56	0x3dd1b8d3	0.102403305
57	0xbcf08ec3	-0.02936495
58	0x3d64cae5	0.055857558
59	0x3e5bcf85	0.21465881
60	0x3d76368a	0.060110606
61	0xbccbb927	-0.024868561
62	0x3c537a05	0.01290751
63	0x3e0a98a5	0.13534792
64	0x3e23232d	0.15931387
65	0x3de29486	0.11063485
66	0xbcb6ff31	-0.022338482
67	0x3bbd6bcd	0.005780673
68	0x3b5840e2	0.0032997658
69	0x3e4147d1	0.18875052
70	0x3d305d5c	0.043057784
71	0x3e094afe	0.13407513
72	0x3e1e560d	0.15462513
73	0x3e157936	0.1459702
74	0xb9dbad82	-0.00041900208
75	0x3d8a67f6	0.0675811
76	0x3e4b5810	0.19857812
77	0x3db463d1	0.08808101
78	0x3e0c22ba	0.13685122
79	0xbdc1b3c8	-0.09458119
80	0xbd941e35	-0.07232324
81	0x3cf790af	0.030220358
82	0xbdc62b05	-0.09676174
83	0xbd70805a	-0.058716156
84	0x3c413ed2	0.011794763
85	0xbd03dc88	-0.032192737
86	0x3d368d2c	0.044568226
87	0xbd621cbb	-0.05520318
88	0xbd816fc0	-0.06320143
89	0xbde23a6e	-0.11046301
90	0xbd1b14cb	-0.037861627
91	0xbe82d459	-0.25552633
92	0xbd991c96	-0.074761555
93	0x3d6d3cc6	0.057919286
94	0xbdea7c24	-0.11449459
95	0xbd65798f	-0.05602413
96	0xbd63c41c	-0.055606946
97	0xbe067104	-0.1312905
98	0x3de29435	0.110634245
99	0xbceaa761	-0.028644266
100	0xbb0e4188	-0.002170654
101	0xbe5003ef	-0.20314
102	0x3d50b080	0.050949574
103	0xbd7b0efd	-0.06129359
104	0xbd17361c	-0.036916837
105	0xbdaf0a3b	-0.08546873
106	0x3d121d88	0.035672694
107	0xbda1702a	-0.07882722
108	0xbd9bcfe5	-0.07608012
109	0xbda237dd	-0.07920811
110	0xbc411655	-0.0117851095
111	0xbd8c57f0	-0.0685271
112	0x3da3c34a	0.07996233
113	0x3dcfdd05	0.10149578
114	0xbce6670a	-0.028125305
115	0x3d921848	0.071335375
116	0x3b4e37b4	0.0031466307
117	0x3d7a5b6b	0.06112234
118	0x3c51607e	0.012779353
119	0x3d68673e	0.056739084
120	0x3daf5190	0.08560479
121	0x3bdf9eea	0.006824364
122	0xbcfc1409	-0.030771272
123	0x3d914c33	0.07094612
124	0x3dc15e84	0.094418555
125	0xbd0ddec8	-0.03463629
126	0x3d3daec2	0.04630924
127	0x3d78fa5e	0.060785644
128	0xbb81d4ef	-0.0039621512
129	0xbdf58583	-0.11988356
130	0xbcb469aa	-0.02202304
131	0xbd8279ff	-0.06370925
132	0x3cce72a1	0.025201144
133	0x3d81c1a0	0.06335759
134	0xbb77a8f4	-0.0037789913
135	0xbd2024f0	-0.039097726
136	0x3dd22c9e	0.10262416
137	0x3d120e12	0.03565795
138	0xbc53f5d6	-0.01293703
139	0xbce9015f	-0.028443037
140	0x3e177919	0.14792289
141	0xbe200488	-0.15626729
142	0x3cc048aa	0.023472149
143	0x3d903a36	0.07042353
144	0xbbbfffae	-0.005859337
145	0xbd80d845	-0.0629125
146	0x3bce3308	0.0062927045
147	0xbda50448	-0.08057457
148	0x3bb81ff7	0.005619045
149	0x3da6d860	0.08146739
150	0xbc582aff	-0.013193845
151	0x3d0e11af	0.034684833
152	0x3bb3f03e	0.0054912856
153	0xbd33d0f8	-0.04390046
154	0xbd008f12	-0.031386442
155	0xba83012a	-0.0009994854
156	0x3d50060a	0.05078701
157	0xbd8c6da4	-0.0685685
158	0xbcbcb4f7	-0.02303551
159	0xbc813c0d	-0.015775705
160	0x3cd742e3	0.026277011
161	0x3d2c94c1	0.04213405
162	0x3da3d5bf	0.07999753
163	0x3d2a808a	0.04162649
164	0x3b998c11	0.0046858867
165	0x3dfb86e0	0.12281585
166	0xbccb17a1	-0.02479154
167	0xbd445eb6	-0.047941886
168	0x3da08d85	0.07839493
169	0x3cb6f4dd	0.022333557
170	0x3da3d107	0.07998853
171	0xbd8db6ff	-0.06919669
172	0x3d63c85d	0.055611003
173	0xbdf80a44	-0.12111333
174	0x3ccc01ad	0.024903143
175	0xbc889eed	-0.016677344
176	0x3becc16e	0.007225207
177	0xbc645479	-0.0139361555
178	0xbdecf1d4	-0.115695626
179	0xbdddd83e	-0.108322605
180	0x3d0dbea8	0.034605652
181	0x3df44da3	0.119288705
182	0xbc653e45	-0.013991897
183	0xbd7a25db	-0.061071258
184	0x3beb8c9c	0.007188393
185	0x3b2a5347	0.0025989579
186	0xbc03a27a	-0.008034343
187	0x3d3a11fd	0.04542731
188	0xbce531ba	-0.027977813
189	0xbe161a7d	-0.14658542
190	0xbd026193	-0.031831335
191	0xbd378002	-0.044799812
192	0xbdaf8d10	-0.085718274
193	0xbd940ff3	-0.072296046
194	0xbc88830f	-0.016664056
195	0xbdacbd8c	-0.08434591
196	0x3d1a92b0	0.03773755
197	0xbdcc0721	-0.09962297
198	0xbc7ffa18	-0.015623592
199	0x3b845e62	0.0040395716
200	0xbd93a3b4	-0.07208958
201	0xbd667e1c	-0.05627261
202	0x3dade3e4	0.08490732
203	0x3cee092a	0.029057104
204	0xbd870fb4	-0.06594792
205	0xbda94e3e	-0.08266877
206	0xbd1fca18	-0.03901109
207	0xbe08566d	-0.13314219
208	0xbc7124a7	-0.014718211
209	0xbd8416ea	-0.06449683
210	0xbdc717c1	-0.097213276
211	0xbe1f3ec3	-0.15551285
212	0x3dd19fa1	0.10235525
213	0x3d14c978	0.036324948
214	0x3d9647b4	0.07337895
215	0xbdb6a074	-0.08917323
216	0xbc848e47	-0.016181124
217	0xbdec4128	-0.11535865
218	0xbc44c78c	-0.012010466
219	0x3d9917bc	0.0747523
220	0x3d2f5dd8	0.042814106
221	0xbd5e0560	-0.054204345
222	0x3c97592e	0.018475141
223	0x3d6e2f78	0.05815074
224	0xbd07b48a	-0.03313116
225	0xbde29466	-0.11063461
226	0xbd56880d	-0.052375842
227	0xbe303ca1	-0.17210628
228	0x3db93128	0.09042579
229	0xbd05b20b	-0.032640498
230	0xbcb9306c	-0.022606097
231	0xbe406a69	-0.18790592
232	0xbcfd9465	-0.03095455
233	0xbd15fbda	-0.036617137
234	0xbcd5b496	-0.026087087
235	0xbda70a8a	-0.08156307
236	0xbd5562b8	-0.0520961
237	0xbe44e284	-0.19227034
238	0xbd8a0167	-0.06738549
239	0x3ce957ba	0.028484214
240	0xbd616bcb	-0.05503444
241	0xbe5b5e80	-0.21422768
242	0x3c371ccb	0.011176298
243	0xbe010045	-0.12597759
244	0x3dbc572f	0.091963165
245	0xbdede0c7	-0.116151385
246	0x3cb840aa	0.022491772
247	0xbdeec879	-0.11659331
248	0xbd965d55	-0.073420204
249	0xbcfdd23f	-0.030984042
250	0xbd8441fd	-0.06457899
251	0xbda70409	-0.081550665
252	0xbdd8b102	-0.105806366
253	0xbe1f8f16	-0.15581927
254	0x3d62c19b	0.055360418
255	0x3d45eed7	0.04832348

arith.constant4 f4 [64]
0	0x3d243dff	0.040098187
1	0x3dab2be0	0.08357978
2	0x3d3eb37a	0.04655788
3	0xbb9c44d0	-0.0047689453
4	0x3d244331	0.04010314
5	0x3d0f0dcb	0.034925263
6	0x3c5b4c4d	0.013384891
7	0x3c96ea37	0.01842223
8	0x3d5004f3	0.05078597
9	0xbc3b7267	-0.01144085
10	0xbbc4b78c	-0.006003326
11	0x3d525901	0.051354412
12	0xbd946a5c	-0.07246849
13	0x3cb9aae3	0.022664493
14	0x3d48d9d6	0.04903587
15	0xbc1499bd	-0.009069857
16	0x3d7c70db	0.061631065
17	0x3c6205ca	0.0137953255
18	0x3d33851c	0.043828115
19	0x3ce90067	0.028442575
20	0xbb0c719b	-0.0021430019
21	0x3c88a384	0.016679533
22	0x3c4a6bde	0.012354819
23	0xbc31c5d0	-0.010850385
24	0x3d3b8416	0.045780264
25	0xbb138d51	-0.002251465
26	0x3d8ca3b9	0.06867165
27	0x3c6bc527	0.0143902665
28	0xbc40fbd0	-0.011778787
29	0x3d0563d3	0.032565903
30	0x3bd411fb	0.00647187
31	0x3c4e56c6	0.012593931
32	0x3d66cd8d	0.056348372
33	0x3d2bb9f9	0.041925404
34	0x3b3150cf	0.0027056222
35	0x3d0461bf	0.03231978
36	0xbb02964d	-0.0019926012
37	0x3d980b2f	0.07424008
38	0x3da51633	0.08060875
39	0x3ccd2203	0.025040632
40	0x3d23f6cf	0.040030297
41	0x3d28e49a	0.041233636
42	0x3d01a451	0.031650845
43	0x3c24ea95	0.010065694
44	0x3ba9b22d	0.005178711
45	0x3d20cd4b	0.039258283
46	0x3cac9bd4	0.021070398
47	0x39e47368	0.00043573533
48	0x3c428a7f	0.01187384
49	0x3d7c7f1c	0.06164466
50	0x3d0487af	0.03235596
51	0x3ca9a269	0.020707326
52	0x3dc75ce6	0.09734516
53	0x3d176d2a	0.03696934
54	0x3d480378	0.048831433
55	0xbc9c5021	-0.019081177
56	0x3d8f3420	0.06992364
57	0x3d2717ea	0.04079429
58	0x3da1e9e7	0.079059415
59	0x3ce6e594	0.028185643
60	0x3d35a4ee	0.044346742
61	0xbc3135a5	-0.0108160125
62	0x3c87c000	0.016571045
63	0xbc04d77f	-0.008108019

arith.constant5 f4 [6]
0	0x3d595427	0.05305877
1	0x3c75e3eb	0.015007953
2	0xbd0633da	-0.032764293
3	0xbc052503	-0.0081265
4	0xbd9b0a85	-0.07570366
5	0x3d103354	0.0352052
